[32m2021-09-06 17:44:25.063[39m | [1mINFO[22m | [90m/okyanus/users/deepdrone/Toad-Gan/Multi-Agent-Allocation-with-Generative-Network/environment/level_utils.py:75[39m | Tokens in level ['-', 'W', 'X']
Level_GeneratorConcatSkip2CleanAdd(
  (head): ConvBlock(
    (conv): Conv2d(3, 64, kernel_size=(3, 3), stride=(1, 1))
    (norm): BatchNorm2d(64, eps=1e-05, momentum=0.1, affine=True, track_running_stats=True)
    (LeakyRelu): LeakyReLU(negative_slope=0.2, inplace=True)
  )
  (body): Sequential(
    (block1): ConvBlock(
      (conv): Conv2d(64, 64, kernel_size=(3, 3), stride=(1, 1))
      (norm): BatchNorm2d(64, eps=1e-05, momentum=0.1, affine=True, track_running_stats=True)
      (LeakyRelu): LeakyReLU(negative_slope=0.2, inplace=True)
    )
  )
  (tail): Sequential(
    (0): Conv2d(64, 3, kernel_size=(3, 3), stride=(1, 1))
  )
)
Level_WDiscriminator(
  (head): ConvBlock(
    (conv): Conv2d(3, 64, kernel_size=(3, 3), stride=(1, 1))
    (norm): BatchNorm2d(64, eps=1e-05, momentum=0.1, affine=True, track_running_stats=True)
    (LeakyRelu): LeakyReLU(negative_slope=0.2, inplace=True)
  )
  (body): Sequential(
    (block1): ConvBlock(
      (conv): Conv2d(64, 64, kernel_size=(3, 3), stride=(1, 1))
      (norm): BatchNorm2d(64, eps=1e-05, momentum=0.1, affine=True, track_running_stats=True)
      (LeakyRelu): LeakyReLU(negative_slope=0.2, inplace=True)
    )
  )
  (tail): Conv2d(64, 1, kernel_size=(3, 3), stride=(1, 1))
)
Single scale bitti
Level_GeneratorConcatSkip2CleanAdd(
  (head): ConvBlock(
    (conv): Conv2d(3, 64, kernel_size=(3, 3), stride=(1, 1))
    (norm): BatchNorm2d(64, eps=1e-05, momentum=0.1, affine=True, track_running_stats=True)
    (LeakyRelu): LeakyReLU(negative_slope=0.2, inplace=True)
  )
  (body): Sequential(
    (block1): ConvBlock(
      (conv): Conv2d(64, 64, kernel_size=(3, 3), stride=(1, 1))
      (norm): BatchNorm2d(64, eps=1e-05, momentum=0.1, affine=True, track_running_stats=True)
      (LeakyRelu): LeakyReLU(negative_slope=0.2, inplace=True)
    )
  )
  (tail): Sequential(
    (0): Conv2d(64, 3, kernel_size=(3, 3), stride=(1, 1))
  )
)
Level_WDiscriminator(
  (head): ConvBlock(
    (conv): Conv2d(3, 64, kernel_size=(3, 3), stride=(1, 1))
    (norm): BatchNorm2d(64, eps=1e-05, momentum=0.1, affine=True, track_running_stats=True)
    (LeakyRelu): LeakyReLU(negative_slope=0.2, inplace=True)
  )
  (body): Sequential(
    (block1): ConvBlock(
      (conv): Conv2d(64, 64, kernel_size=(3, 3), stride=(1, 1))
      (norm): BatchNorm2d(64, eps=1e-05, momentum=0.1, affine=True, track_running_stats=True)
      (LeakyRelu): LeakyReLU(negative_slope=0.2, inplace=True)
    )
  )
  (tail): Conv2d(64, 1, kernel_size=(3, 3), stride=(1, 1))
)
Single scale bitti
Level_GeneratorConcatSkip2CleanAdd(
  (head): ConvBlock(
    (conv): Conv2d(3, 64, kernel_size=(3, 3), stride=(1, 1))
    (norm): BatchNorm2d(64, eps=1e-05, momentum=0.1, affine=True, track_running_stats=True)
    (LeakyRelu): LeakyReLU(negative_slope=0.2, inplace=True)
  )
  (body): Sequential(
    (block1): ConvBlock(
      (conv): Conv2d(64, 64, kernel_size=(3, 3), stride=(1, 1))
      (norm): BatchNorm2d(64, eps=1e-05, momentum=0.1, affine=True, track_running_stats=True)
      (LeakyRelu): LeakyReLU(negative_slope=0.2, inplace=True)
    )
  )
  (tail): Sequential(
    (0): Conv2d(64, 3, kernel_size=(3, 3), stride=(1, 1))
  )
)
Level_WDiscriminator(
  (head): ConvBlock(
    (conv): Conv2d(3, 64, kernel_size=(3, 3), stride=(1, 1))
    (norm): BatchNorm2d(64, eps=1e-05, momentum=0.1, affine=True, track_running_stats=True)
    (LeakyRelu): LeakyReLU(negative_slope=0.2, inplace=True)
  )
  (body): Sequential(
    (block1): ConvBlock(
      (conv): Conv2d(64, 64, kernel_size=(3, 3), stride=(1, 1))
      (norm): BatchNorm2d(64, eps=1e-05, momentum=0.1, affine=True, track_running_stats=True)
      (LeakyRelu): LeakyReLU(negative_slope=0.2, inplace=True)
    )
  )
  (tail): Conv2d(64, 1, kernel_size=(3, 3), stride=(1, 1))
)
Single scale bitti
Level_GeneratorConcatSkip2CleanAdd(
  (head): ConvBlock(
    (conv): Conv2d(3, 64, kernel_size=(3, 3), stride=(1, 1))
    (norm): BatchNorm2d(64, eps=1e-05, momentum=0.1, affine=True, track_running_stats=True)
    (LeakyRelu): LeakyReLU(negative_slope=0.2, inplace=True)
  )
  (body): Sequential(
    (block1): ConvBlock(
      (conv): Conv2d(64, 64, kernel_size=(3, 3), stride=(1, 1))
      (norm): BatchNorm2d(64, eps=1e-05, momentum=0.1, affine=True, track_running_stats=True)
      (LeakyRelu): LeakyReLU(negative_slope=0.2, inplace=True)
    )
  )
  (tail): Sequential(
    (0): Conv2d(64, 3, kernel_size=(3, 3), stride=(1, 1))
  )
)
Level_WDiscriminator(
  (head): ConvBlock(
    (conv): Conv2d(3, 64, kernel_size=(3, 3), stride=(1, 1))
    (norm): BatchNorm2d(64, eps=1e-05, momentum=0.1, affine=True, track_running_stats=True)
    (LeakyRelu): LeakyReLU(negative_slope=0.2, inplace=True)
  )
  (body): Sequential(
    (block1): ConvBlock(
      (conv): Conv2d(64, 64, kernel_size=(3, 3), stride=(1, 1))
      (norm): BatchNorm2d(64, eps=1e-05, momentum=0.1, affine=True, track_running_stats=True)
      (LeakyRelu): LeakyReLU(negative_slope=0.2, inplace=True)
    )
  )
  (tail): Conv2d(64, 1, kernel_size=(3, 3), stride=(1, 1))
)
Single scale bitti
[32m2021-09-10 15:53:01.345[39m | [1mINFO[22m | [90m/okyanus/users/deepdrone/Toad-Gan/Multi-Agent-Allocation-with-Generative-Network/main.py:61[39m | Finished training! Generating random samples...
[32m2021-09-10 15:53:01.354[39m | [1mINFO[22m | [90m/okyanus/users/deepdrone/Toad-Gan/Multi-Agent-Allocation-with-Generative-Network/generate_samples.py:55[39m | Generating samples at scale 0
…
