[32m2021-08-30 17:15:12.407[39m | [1mINFO[22m | [90m/home/regen/Desktop/Multi-Agent-Allocation-with-Generative-Network/environment/level_utils.py:75[39m | Tokens in level ['-', 'O', 'W', 'X']
Level_GeneratorConcatSkip2CleanAdd(
  (head): ConvBlock(
    (conv): Conv2d(4, 64, kernel_size=(3, 3), stride=(1, 1))
    (norm): BatchNorm2d(64, eps=1e-05, momentum=0.1, affine=True, track_running_stats=True)
    (LeakyRelu): LeakyReLU(negative_slope=0.2, inplace=True)
  )
  (body): Sequential(
    (block1): ConvBlock(
      (conv): Conv2d(64, 64, kernel_size=(3, 3), stride=(1, 1))
      (norm): BatchNorm2d(64, eps=1e-05, momentum=0.1, affine=True, track_running_stats=True)
      (LeakyRelu): LeakyReLU(negative_slope=0.2, inplace=True)
    )
  )
  (tail): Sequential(
    (0): Conv2d(64, 4, kernel_size=(3, 3), stride=(1, 1))
  )
)
Level_WDiscriminator(
  (head): ConvBlock(
    (conv): Conv2d(4, 64, kernel_size=(3, 3), stride=(1, 1))
    (norm): BatchNorm2d(64, eps=1e-05, momentum=0.1, affine=True, track_running_stats=True)
    (LeakyRelu): LeakyReLU(negative_slope=0.2, inplace=True)
  )
  (body): Sequential(
    (block1): ConvBlock(
      (conv): Conv2d(64, 64, kernel_size=(3, 3), stride=(1, 1))
      (norm): BatchNorm2d(64, eps=1e-05, momentum=0.1, affine=True, track_running_stats=True)
      (LeakyRelu): LeakyReLU(negative_slope=0.2, inplace=True)
    )
  )
  (tail): Conv2d(64, 1, kernel_size=(3, 3), stride=(1, 1))
)
[32m2021-08-30 17:15:14.514[39m | [1mINFO[22m | [90m/home/regen/Desktop/Multi-Agent-Allocation-with-Generative-Network/train_single_scale.py:63[39m | Training at scale 0
self.n_agents:  1
  0%|                                                                                                                                                                                                                        | 0/100 [00:00<?, ?it/s]
…
