[32m2021-08-09 15:15:28.643[39m | [1mINFO[22m | [90m/home/regen/Desktop/Multi-Agent-Allocation-with-Generative-Network/environment/level_utils.py:75[39m | Tokens in level ['-', 'O', 'W', 'X']
Level_GeneratorConcatSkip2CleanAdd(
  (head): ConvBlock(
    (conv): Conv2d(4, 64, kernel_size=(3, 3), stride=(1, 1))
    (norm): BatchNorm2d(64, eps=1e-05, momentum=0.1, affine=True, track_running_stats=True)
    (LeakyRelu): LeakyReLU(negative_slope=0.2, inplace=True)
  )
  (body): Sequential(
    (block1): ConvBlock(
      (conv): Conv2d(64, 64, kernel_size=(3, 3), stride=(1, 1))
      (norm): BatchNorm2d(64, eps=1e-05, momentum=0.1, affine=True, track_running_stats=True)
      (LeakyRelu): LeakyReLU(negative_slope=0.2, inplace=True)
    )
  )
  (tail): Sequential(
    (0): Conv2d(64, 4, kernel_size=(3, 3), stride=(1, 1))
  )
)
Level_WDiscriminator(
  (head): ConvBlock(
    (conv): Conv2d(4, 64, kernel_size=(3, 3), stride=(1, 1))
    (norm): BatchNorm2d(64, eps=1e-05, momentum=0.1, affine=True, track_running_stats=True)
    (LeakyRelu): LeakyReLU(negative_slope=0.2, inplace=True)
  )
  (body): Sequential(
    (block1): ConvBlock(
      (conv): Conv2d(64, 64, kernel_size=(3, 3), stride=(1, 1))
      (norm): BatchNorm2d(64, eps=1e-05, momentum=0.1, affine=True, track_running_stats=True)
      (LeakyRelu): LeakyReLU(negative_slope=0.2, inplace=True)
    )
  )
  (tail): Conv2d(64, 1, kernel_size=(3, 3), stride=(1, 1))
)
[32m2021-08-09 15:15:30.710[39m | [1mINFO[22m | [90m/home/regen/Desktop/Multi-Agent-Allocation-with-Generative-Network/train_single_scale.py:62[39m | Training at scale 0
Level_GeneratorConcatSkip2CleanAdd(
  (head): ConvBlock(
    (conv): Conv2d(4, 64, kernel_size=(3, 3), stride=(1, 1))
    (norm): BatchNorm2d(64, eps=1e-05, momentum=0.1, affine=True, track_running_stats=True)
    (LeakyRelu): LeakyReLU(negative_slope=0.2, inplace=True)
  )
  (body): Sequential(
    (block1): ConvBlock(
      (conv): Conv2d(64, 64, kernel_size=(3, 3), stride=(1, 1))
      (norm): BatchNorm2d(64, eps=1e-05, momentum=0.1, affine=True, track_running_stats=True)
      (LeakyRelu): LeakyReLU(negative_slope=0.2, inplace=True)
    )
  )
  (tail): Sequential(
    (0): Conv2d(64, 4, kernel_size=(3, 3), stride=(1, 1))
  )
)
Level_WDiscriminator(
  (head): ConvBlock(
    (conv): Conv2d(4, 64, kernel_size=(3, 3), stride=(1, 1))
    (norm): BatchNorm2d(64, eps=1e-05, momentum=0.1, affine=True, track_running_stats=True)
    (LeakyRelu): LeakyReLU(negative_slope=0.2, inplace=True)
  )
  (body): Sequential(
    (block1): ConvBlock(
      (conv): Conv2d(64, 64, kernel_size=(3, 3), stride=(1, 1))
      (norm): BatchNorm2d(64, eps=1e-05, momentum=0.1, affine=True, track_running_stats=True)
      (LeakyRelu): LeakyReLU(negative_slope=0.2, inplace=True)
    )
  )
  (tail): Conv2d(64, 1, kernel_size=(3, 3), stride=(1, 1))
)
[32m2021-08-09 15:17:15.745[39m | [1mINFO[22m | [90m/home/regen/Desktop/Multi-Agent-Allocation-with-Generative-Network/train_single_scale.py:62[39m | Training at scale 1
Level_GeneratorConcatSkip2CleanAdd(
  (head): ConvBlock(
    (conv): Conv2d(4, 64, kernel_size=(3, 3), stride=(1, 1))
    (norm): BatchNorm2d(64, eps=1e-05, momentum=0.1, affine=True, track_running_stats=True)
    (LeakyRelu): LeakyReLU(negative_slope=0.2, inplace=True)
  )
  (body): Sequential(
    (block1): ConvBlock(
      (conv): Conv2d(64, 64, kernel_size=(3, 3), stride=(1, 1))
      (norm): BatchNorm2d(64, eps=1e-05, momentum=0.1, affine=True, track_running_stats=True)
      (LeakyRelu): LeakyReLU(negative_slope=0.2, inplace=True)
    )
  )
  (tail): Sequential(
    (0): Conv2d(64, 4, kernel_size=(3, 3), stride=(1, 1))
  )
)
Level_WDiscriminator(
  (head): ConvBlock(
    (conv): Conv2d(4, 64, kernel_size=(3, 3), stride=(1, 1))
    (norm): BatchNorm2d(64, eps=1e-05, momentum=0.1, affine=True, track_running_stats=True)
    (LeakyRelu): LeakyReLU(negative_slope=0.2, inplace=True)
  )
  (body): Sequential(
    (block1): ConvBlock(
      (conv): Conv2d(64, 64, kernel_size=(3, 3), stride=(1, 1))
      (norm): BatchNorm2d(64, eps=1e-05, momentum=0.1, affine=True, track_running_stats=True)
      (LeakyRelu): LeakyReLU(negative_slope=0.2, inplace=True)
    )
  )
  (tail): Conv2d(64, 1, kernel_size=(3, 3), stride=(1, 1))
)
[32m2021-08-09 15:19:08.631[39m | [1mINFO[22m | [90m/home/regen/Desktop/Multi-Agent-Allocation-with-Generative-Network/train_single_scale.py:62[39m | Training at scale 2
Level_GeneratorConcatSkip2CleanAdd(
  (head): ConvBlock(
    (conv): Conv2d(4, 64, kernel_size=(3, 3), stride=(1, 1))
    (norm): BatchNorm2d(64, eps=1e-05, momentum=0.1, affine=True, track_running_stats=True)
    (LeakyRelu): LeakyReLU(negative_slope=0.2, inplace=True)
  )
  (body): Sequential(
    (block1): ConvBlock(
      (conv): Conv2d(64, 64, kernel_size=(3, 3), stride=(1, 1))
      (norm): BatchNorm2d(64, eps=1e-05, momentum=0.1, affine=True, track_running_stats=True)
      (LeakyRelu): LeakyReLU(negative_slope=0.2, inplace=True)
    )
  )
  (tail): Sequential(
    (0): Conv2d(64, 4, kernel_size=(3, 3), stride=(1, 1))
  )
)
Level_WDiscriminator(
  (head): ConvBlock(
    (conv): Conv2d(4, 64, kernel_size=(3, 3), stride=(1, 1))
    (norm): BatchNorm2d(64, eps=1e-05, momentum=0.1, affine=True, track_running_stats=True)
    (LeakyRelu): LeakyReLU(negative_slope=0.2, inplace=True)
  )
  (body): Sequential(
    (block1): ConvBlock(
      (conv): Conv2d(64, 64, kernel_size=(3, 3), stride=(1, 1))
      (norm): BatchNorm2d(64, eps=1e-05, momentum=0.1, affine=True, track_running_stats=True)
      (LeakyRelu): LeakyReLU(negative_slope=0.2, inplace=True)
    )
  )
  (tail): Conv2d(64, 1, kernel_size=(3, 3), stride=(1, 1))
)
[32m2021-08-09 15:21:07.407[39m | [1mINFO[22m | [90m/home/regen/Desktop/Multi-Agent-Allocation-with-Generative-Network/train_single_scale.py:62[39m | Training at scale 3
[32m2021-08-09 15:23:11.668[39m | [1mINFO[22m | [90mmain.py:62[39m | Finished training! Generating random samples...
[32m2021-08-09 15:23:11.668[39m | [1mINFO[22m | [90m/home/regen/Desktop/Multi-Agent-Allocation-with-Generative-Network/generate_samples.py:55[39m | Generating samples at scale 0
…
